<?xml version="1.0" ?>
<net name="model-mobilenet_v1_101" version="10">
	<layers>
		<layer id="0" name="image" type="Parameter" version="opset1">
			<data element_type="f16" shape="1,3,337,449"/>
			<output>
				<port id="0" precision="FP16">
					<dim>1</dim>
					<dim>3</dim>
					<dim>337</dim>
					<dim>449</dim>
				</port>
			</output>
		</layer>
		<layer id="1" name="MobilenetV1/Conv2d_0/weights/read/Output_0/Data__const" type="Const" version="opset1">
			<data element_type="f16" offset="0" shape="32,3,3,3" size="1728"/>
			<output>
				<port id="1" precision="FP16">
					<dim>32</dim>
					<dim>3</dim>
					<dim>3</dim>
					<dim>3</dim>
				</port>
			</output>
		</layer>
		<layer id="2" name="MobilenetV1/Conv2D" type="Convolution" version="opset1">
			<data auto_pad="same_upper" dilations="1,1" output_padding="0,0" pads_begin="0,0" pads_end="0,0" strides="2,2"/>
			<input>
				<port id="0">
					<dim>1</dim>
					<dim>3</dim>
					<dim>337</dim>
					<dim>449</dim>
				</port>
				<port id="1">
					<dim>32</dim>
					<dim>3</dim>
					<dim>3</dim>
					<dim>3</dim>
				</port>
			</input>
			<output>
				<port id="2" precision="FP16">
					<dim>1</dim>
					<dim>32</dim>
					<dim>169</dim>
					<dim>225</dim>
				</port>
			</output>
		</layer>
		<layer id="3" name="MobilenetV1/Conv2d_0/biases/read/Output_0/Data_/copy_const" type="Const" version="opset1">
			<data element_type="f16" offset="1728" shape="1,32,1,1" size="64"/>
			<output>
				<port id="1" precision="FP16">
					<dim>1</dim>
					<dim>32</dim>
					<dim>1</dim>
					<dim>1</dim>
				</port>
			</output>
		</layer>
		<layer id="4" name="MobilenetV1/add" type="Add" version="opset1">
			<input>
				<port id="0">
					<dim>1</dim>
					<dim>32</dim>
					<dim>169</dim>
					<dim>225</dim>
				</port>
				<port id="1">
					<dim>1</dim>
					<dim>32</dim>
					<dim>1</dim>
					<dim>1</dim>
				</port>
			</input>
			<output>
				<port id="2" precision="FP16">
					<dim>1</dim>
					<dim>32</dim>
					<dim>169</dim>
					<dim>225</dim>
				</port>
			</output>
		</layer>
		<layer id="5" name="MobilenetV1/Relu6" type="Clamp" version="opset1">
			<data max="6.0" min="0.0"/>
			<input>
				<port id="0">
					<dim>1</dim>
					<dim>32</dim>
					<dim>169</dim>
					<dim>225</dim>
				</port>
			</input>
			<output>
				<port id="1" precision="FP16">
					<dim>1</dim>
					<dim>32</dim>
					<dim>169</dim>
					<dim>225</dim>
				</port>
			</output>
		</layer>
		<layer id="6" name="90699072_const" type="Const" version="opset1">
			<data element_type="f16" offset="1792" shape="32,1,1,3,3" size="576"/>
			<output>
				<port id="1" precision="FP16">
					<dim>32</dim>
					<dim>1</dim>
					<dim>1</dim>
					<dim>3</dim>
					<dim>3</dim>
				</port>
			</output>
		</layer>
		<layer id="7" name="MobilenetV1/depthwise" type="GroupConvolution" version="opset1">
			<data auto_pad="same_upper" dilations="1,1" output_padding="0,0" pads_begin="0,0" pads_end="0,0" strides="1,1"/>
			<input>
				<port id="0">
					<dim>1</dim>
					<dim>32</dim>
					<dim>169</dim>
					<dim>225</dim>
				</port>
				<port id="1">
					<dim>32</dim>
					<dim>1</dim>
					<dim>1</dim>
					<dim>3</dim>
					<dim>3</dim>
				</port>
			</input>
			<output>
				<port id="2" precision="FP16">
					<dim>1</dim>
					<dim>32</dim>
					<dim>169</dim>
					<dim>225</dim>
				</port>
			</output>
		</layer>
		<layer id="8" name="MobilenetV1/Conv2d_1_depthwise/biases/read/Output_0/Data_/copy_const" type="Const" version="opset1">
			<data element_type="f16" offset="2368" shape="1,32,1,1" size="64"/>
			<output>
				<port id="1" precision="FP16">
					<dim>1</dim>
					<dim>32</dim>
					<dim>1</dim>
					<dim>1</dim>
				</port>
			</output>
		</layer>
		<layer id="9" name="MobilenetV1/BiasAdd/Add" type="Add" version="opset1">
			<input>
				<port id="0">
					<dim>1</dim>
					<dim>32</dim>
					<dim>169</dim>
					<dim>225</dim>
				</port>
				<port id="1">
					<dim>1</dim>
					<dim>32</dim>
					<dim>1</dim>
					<dim>1</dim>
				</port>
			</input>
			<output>
				<port id="2" precision="FP16">
					<dim>1</dim>
					<dim>32</dim>
					<dim>169</dim>
					<dim>225</dim>
				</port>
			</output>
		</layer>
		<layer id="10" name="MobilenetV1/Relu6_1" type="Clamp" version="opset1">
			<data max="6.0" min="0.0"/>
			<input>
				<port id="0">
					<dim>1</dim>
					<dim>32</dim>
					<dim>169</dim>
					<dim>225</dim>
				</port>
			</input>
			<output>
				<port id="1" precision="FP16">
					<dim>1</dim>
					<dim>32</dim>
					<dim>169</dim>
					<dim>225</dim>
				</port>
			</output>
		</layer>
		<layer id="11" name="MobilenetV1/Conv2d_1_pointwise/weights/read/Output_0/Data__const" type="Const" version="opset1">
			<data element_type="f16" offset="2432" shape="64,32,1,1" size="4096"/>
			<output>
				<port id="1" precision="FP16">
					<dim>64</dim>
					<dim>32</dim>
					<dim>1</dim>
					<dim>1</dim>
				</port>
			</output>
		</layer>
		<layer id="12" name="MobilenetV1/Conv2D_1" type="Convolution" version="opset1">
			<data auto_pad="same_upper" dilations="1,1" output_padding="0,0" pads_begin="0,0" pads_end="0,0" strides="1,1"/>
			<input>
				<port id="0">
					<dim>1</dim>
					<dim>32</dim>
					<dim>169</dim>
					<dim>225</dim>
				</port>
				<port id="1">
					<dim>64</dim>
					<dim>32</dim>
					<dim>1</dim>
					<dim>1</dim>
				</port>
			</input>
			<output>
				<port id="2" precision="FP16">
					<dim>1</dim>
					<dim>64</dim>
					<dim>169</dim>
					<dim>225</dim>
				</port>
			</output>
		</layer>
		<layer id="13" name="MobilenetV1/Conv2d_1_pointwise/biases/read/Output_0/Data_/copy_const" type="Const" version="opset1">
			<data element_type="f16" offset="6528" shape="1,64,1,1" size="128"/>
			<output>
				<port id="1" precision="FP16">
					<dim>1</dim>
					<dim>64</dim>
					<dim>1</dim>
					<dim>1</dim>
				</port>
			</output>
		</layer>
		<layer id="14" name="MobilenetV1/BiasAdd_1/Add" type="Add" version="opset1">
			<input>
				<port id="0">
					<dim>1</dim>
					<dim>64</dim>
					<dim>169</dim>
					<dim>225</dim>
				</port>
				<port id="1">
					<dim>1</dim>
					<dim>64</dim>
					<dim>1</dim>
					<dim>1</dim>
				</port>
			</input>
			<output>
				<port id="2" precision="FP16">
					<dim>1</dim>
					<dim>64</dim>
					<dim>169</dim>
					<dim>225</dim>
				</port>
			</output>
		</layer>
		<layer id="15" name="MobilenetV1/Relu6_2" type="Clamp" version="opset1">
			<data max="6.0" min="0.0"/>
			<input>
				<port id="0">
					<dim>1</dim>
					<dim>64</dim>
					<dim>169</dim>
					<dim>225</dim>
				</port>
			</input>
			<output>
				<port id="1" precision="FP16">
					<dim>1</dim>
					<dim>64</dim>
					<dim>169</dim>
					<dim>225</dim>
				</port>
			</output>
		</layer>
		<layer id="16" name="90619064_const" type="Const" version="opset1">
			<data element_type="f16" offset="6656" shape="64,1,1,3,3" size="1152"/>
			<output>
				<port id="1" precision="FP16">
					<dim>64</dim>
					<dim>1</dim>
					<dim>1</dim>
					<dim>3</dim>
					<dim>3</dim>
				</port>
			</output>
		</layer>
		<layer id="17" name="MobilenetV1/depthwise_1" type="GroupConvolution" version="opset1">
			<data auto_pad="same_upper" dilations="1,1" output_padding="0,0" pads_begin="0,0" pads_end="0,0" strides="2,2"/>
			<input>
				<port id="0">
					<dim>1</dim>
					<dim>64</dim>
					<dim>169</dim>
					<dim>225</dim>
				</port>
				<port id="1">
					<dim>64</dim>
					<dim>1</dim>
					<dim>1</dim>
					<dim>3</dim>
					<dim>3</dim>
				</port>
			</input>
			<output>
				<port id="2" precision="FP16">
					<dim>1</dim>
					<dim>64</dim>
					<dim>85</dim>
					<dim>113</dim>
				</port>
			</output>
		</layer>
		<layer id="18" name="MobilenetV1/Conv2d_2_depthwise/biases/read/Output_0/Data_/copy_const" type="Const" version="opset1">
			<data element_type="f16" offset="7808" shape="1,64,1,1" size="128"/>
			<output>
				<port id="1" precision="FP16">
					<dim>1</dim>
					<dim>64</dim>
					<dim>1</dim>
					<dim>1</dim>
				</port>
			</output>
		</layer>
		<layer id="19" name="MobilenetV1/BiasAdd_2/Add" type="Add" version="opset1">
			<input>
				<port id="0">
					<dim>1</dim>
					<dim>64</dim>
					<dim>85</dim>
					<dim>113</dim>
				</port>
				<port id="1">
					<dim>1</dim>
					<dim>64</dim>
					<dim>1</dim>
					<dim>1</dim>
				</port>
			</input>
			<output>
				<port id="2" precision="FP16">
					<dim>1</dim>
					<dim>64</dim>
					<dim>85</dim>
					<dim>113</dim>
				</port>
			</output>
		</layer>
		<layer id="20" name="MobilenetV1/Relu6_3" type="Clamp" version="opset1">
			<data max="6.0" min="0.0"/>
			<input>
				<port id="0">
					<dim>1</dim>
					<dim>64</dim>
					<dim>85</dim>
					<dim>113</dim>
				</port>
			</input>
			<output>
				<port id="1" precision="FP16">
					<dim>1</dim>
					<dim>64</dim>
					<dim>85</dim>
					<dim>113</dim>
				</port>
			</output>
		</layer>
		<layer id="21" name="MobilenetV1/Conv2d_2_pointwise/weights/read/Output_0/Data__const" type="Const" version="opset1">
			<data element_type="f16" offset="7936" shape="128,64,1,1" size="16384"/>
			<output>
				<port id="1" precision="FP16">
					<dim>128</dim>
					<dim>64</dim>
					<dim>1</dim>
					<dim>1</dim>
				</port>
			</output>
		</layer>
		<layer id="22" name="MobilenetV1/Conv2D_2" type="Convolution" version="opset1">
			<data auto_pad="same_upper" dilations="1,1" output_padding="0,0" pads_begin="0,0" pads_end="0,0" strides="1,1"/>
			<input>
				<port id="0">
					<dim>1</dim>
					<dim>64</dim>
					<dim>85</dim>
					<dim>113</dim>
				</port>
				<port id="1">
					<dim>128</dim>
					<dim>64</dim>
					<dim>1</dim>
					<dim>1</dim>
				</port>
			</input>
			<output>
				<port id="2" precision="FP16">
					<dim>1</dim>
					<dim>128</dim>
					<dim>85</dim>
					<dim>113</dim>
				</port>
			</output>
		</layer>
		<layer id="23" name="MobilenetV1/Conv2d_2_pointwise/biases/read/Output_0/Data_/copy_const" type="Const" version="opset1">
			<data element_type="f16" offset="24320" shape="1,128,1,1" size="256"/>
			<output>
				<port id="1" precision="FP16">
					<dim>1</dim>
					<dim>128</dim>
					<dim>1</dim>
					<dim>1</dim>
				</port>
			</output>
		</layer>
		<layer id="24" name="MobilenetV1/BiasAdd_3/Add" type="Add" version="opset1">
			<input>
				<port id="0">
					<dim>1</dim>
					<dim>128</dim>
					<dim>85</dim>
					<dim>113</dim>
				</port>
				<port id="1">
					<dim>1</dim>
					<dim>128</dim>
					<dim>1</dim>
					<dim>1</dim>
				</port>
			</input>
			<output>
				<port id="2" precision="FP16">
					<dim>1</dim>
					<dim>128</dim>
					<dim>85</dim>
					<dim>113</dim>
				</port>
			</output>
		</layer>
		<layer id="25" name="MobilenetV1/Relu6_4" type="Clamp" version="opset1">
			<data max="6.0" min="0.0"/>
			<input>
				<port id="0">
					<dim>1</dim>
					<dim>128</dim>
					<dim>85</dim>
					<dim>113</dim>
				</port>
			</input>
			<output>
				<port id="1" precision="FP16">
					<dim>1</dim>
					<dim>128</dim>
					<dim>85</dim>
					<dim>113</dim>
				</port>
			</output>
		</layer>
		<layer id="26" name="90819084_const" type="Const" version="opset1">
			<data element_type="f16" offset="24576" shape="128,1,1,3,3" size="2304"/>
			<output>
				<port id="1" precision="FP16">
					<dim>128</dim>
					<dim>1</dim>
					<dim>1</dim>
					<dim>3</dim>
					<dim>3</dim>
				</port>
			</output>
		</layer>
		<layer id="27" name="MobilenetV1/depthwise_2" type="GroupConvolution" version="opset1">
			<data auto_pad="same_upper" dilations="1,1" output_padding="0,0" pads_begin="0,0" pads_end="0,0" strides="1,1"/>
			<input>
				<port id="0">
					<dim>1</dim>
					<dim>128</dim>
					<dim>85</dim>
					<dim>113</dim>
				</port>
				<port id="1">
					<dim>128</dim>
					<dim>1</dim>
					<dim>1</dim>
					<dim>3</dim>
					<dim>3</dim>
				</port>
			</input>
			<output>
				<port id="2" precision="FP16">
					<dim>1</dim>
					<dim>128</dim>
					<dim>85</dim>
					<dim>113</dim>
				</port>
			</output>
		</layer>
		<layer id="28" name="MobilenetV1/Conv2d_3_depthwise/biases/read/Output_0/Data_/copy_const" type="Const" version="opset1">
			<data element_type="f16" offset="26880" shape="1,128,1,1" size="256"/>
			<output>
				<port id="1" precision="FP16">
					<dim>1</dim>
					<dim>128</dim>
					<dim>1</dim>
					<dim>1</dim>
				</port>
			</output>
		</layer>
		<layer id="29" name="MobilenetV1/BiasAdd_4/Add" type="Add" version="opset1">
			<input>
				<port id="0">
					<dim>1</dim>
					<dim>128</dim>
					<dim>85</dim>
					<dim>113</dim>
				</port>
				<port id="1">
					<dim>1</dim>
					<dim>128</dim>
					<dim>1</dim>
					<dim>1</dim>
				</port>
			</input>
			<output>
				<port id="2" precision="FP16">
					<dim>1</dim>
					<dim>128</dim>
					<dim>85</dim>
					<dim>113</dim>
				</port>
			</output>
		</layer>
		<layer id="30" name="MobilenetV1/Relu6_5" type="Clamp" version="opset1">
			<data max="6.0" min="0.0"/>
			<input>
				<port id="0">
					<dim>1</dim>
					<dim>128</dim>
					<dim>85</dim>
					<dim>113</dim>
				</port>
			</input>
			<output>
				<port id="1" precision="FP16">
					<dim>1</dim>
					<dim>128</dim>
					<dim>85</dim>
					<dim>113</dim>
				</port>
			</output>
		</layer>
		<layer id="31" name="MobilenetV1/Conv2d_3_pointwise/weights/read/Output_0/Data__const" type="Const" version="opset1">
			<data element_type="f16" offset="27136" shape="128,128,1,1" size="32768"/>
			<output>
				<port id="1" precision="FP16">
					<dim>128</dim>
					<dim>128</dim>
					<dim>1</dim>
					<dim>1</dim>
				</port>
			</output>
		</layer>
		<layer id="32" name="MobilenetV1/Conv2D_3" type="Convolution" version="opset1">
			<data auto_pad="same_upper" dilations="1,1" output_padding="0,0" pads_begin="0,0" pads_end="0,0" strides="1,1"/>
			<input>
				<port id="0">
					<dim>1</dim>
					<dim>128</dim>
					<dim>85</dim>
					<dim>113</dim>
				</port>
				<port id="1">
					<dim>128</dim>
					<dim>128</dim>
					<dim>1</dim>
					<dim>1</dim>
				</port>
			</input>
			<output>
				<port id="2" precision="FP16">
					<dim>1</dim>
					<dim>128</dim>
					<dim>85</dim>
					<dim>113</dim>
				</port>
			</output>
		</layer>
		<layer id="33" name="MobilenetV1/Conv2d_3_pointwise/biases/read/Output_0/Data_/copy_const" type="Const" version="opset1">
			<data element_type="f16" offset="59904" shape="1,128,1,1" size="256"/>
			<output>
				<port id="1" precision="FP16">
					<dim>1</dim>
					<dim>128</dim>
					<dim>1</dim>
					<dim>1</dim>
				</port>
			</output>
		</layer>
		<layer id="34" name="MobilenetV1/BiasAdd_5/Add" type="Add" version="opset1">
			<input>
				<port id="0">
					<dim>1</dim>
					<dim>128</dim>
					<dim>85</dim>
					<dim>113</dim>
				</port>
				<port id="1">
					<dim>1</dim>
					<dim>128</dim>
					<dim>1</dim>
					<dim>1</dim>
				</port>
			</input>
			<output>
				<port id="2" precision="FP16">
					<dim>1</dim>
					<dim>128</dim>
					<dim>85</dim>
					<dim>113</dim>
				</port>
			</output>
		</layer>
		<layer id="35" name="MobilenetV1/Relu6_6" type="Clamp" version="opset1">
			<data max="6.0" min="0.0"/>
			<input>
				<port id="0">
					<dim>1</dim>
					<dim>128</dim>
					<dim>85</dim>
					<dim>113</dim>
				</port>
			</input>
			<output>
				<port id="1" precision="FP16">
					<dim>1</dim>
					<dim>128</dim>
					<dim>85</dim>
					<dim>113</dim>
				</port>
			</output>
		</layer>
		<layer id="36" name="90659068_const" type="Const" version="opset1">
			<data element_type="f16" offset="60160" shape="128,1,1,3,3" size="2304"/>
			<output>
				<port id="1" precision="FP16">
					<dim>128</dim>
					<dim>1</dim>
					<dim>1</dim>
					<dim>3</dim>
					<dim>3</dim>
				</port>
			</output>
		</layer>
		<layer id="37" name="MobilenetV1/depthwise_3" type="GroupConvolution" version="opset1">
			<data auto_pad="same_upper" dilations="1,1" output_padding="0,0" pads_begin="0,0" pads_end="0,0" strides="2,2"/>
			<input>
				<port id="0">
					<dim>1</dim>
					<dim>128</dim>
					<dim>85</dim>
					<dim>113</dim>
				</port>
				<port id="1">
					<dim>128</dim>
					<dim>1</dim>
					<dim>1</dim>
					<dim>3</dim>
					<dim>3</dim>
				</port>
			</input>
			<output>
				<port id="2" precision="FP16">
					<dim>1</dim>
					<dim>128</dim>
					<dim>43</dim>
					<dim>57</dim>
				</port>
			</output>
		</layer>
		<layer id="38" name="MobilenetV1/Conv2d_4_depthwise/biases/read/Output_0/Data_/copy_const" type="Const" version="opset1">
			<data element_type="f16" offset="62464" shape="1,128,1,1" size="256"/>
			<output>
				<port id="1" precision="FP16">
					<dim>1</dim>
					<dim>128</dim>
					<dim>1</dim>
					<dim>1</dim>
				</port>
			</output>
		</layer>
		<layer id="39" name="MobilenetV1/BiasAdd_6/Add" type="Add" version="opset1">
			<input>
				<port id="0">
					<dim>1</dim>
					<dim>128</dim>
					<dim>43</dim>
					<dim>57</dim>
				</port>
				<port id="1">
					<dim>1</dim>
					<dim>128</dim>
					<dim>1</dim>
					<dim>1</dim>
				</port>
			</input>
			<output>
				<port id="2" precision="FP16">
					<dim>1</dim>
					<dim>128</dim>
					<dim>43</dim>
					<dim>57</dim>
				</port>
			</output>
		</layer>
		<layer id="40" name="MobilenetV1/Relu6_7" type="Clamp" version="opset1">
			<data max="6.0" min="0.0"/>
			<input>
				<port id="0">
					<dim>1</dim>
					<dim>128</dim>
					<dim>43</dim>
					<dim>57</dim>
				</port>
			</input>
			<output>
				<port id="1" precision="FP16">
					<dim>1</dim>
					<dim>128</dim>
					<dim>43</dim>
					<dim>57</dim>
				</port>
			</output>
		</layer>
		<layer id="41" name="MobilenetV1/Conv2d_4_pointwise/weights/read/Output_0/Data__const" type="Const" version="opset1">
			<data element_type="f16" offset="62720" shape="256,128,1,1" size="65536"/>
			<output>
				<port id="1" precision="FP16">
					<dim>256</dim>
					<dim>128</dim>
					<dim>1</dim>
					<dim>1</dim>
				</port>
			</output>
		</layer>
		<layer id="42" name="MobilenetV1/Conv2D_4" type="Convolution" version="opset1">
			<data auto_pad="same_upper" dilations="1,1" output_padding="0,0" pads_begin="0,0" pads_end="0,0" strides="1,1"/>
			<input>
				<port id="0">
					<dim>1</dim>
					<dim>128</dim>
					<dim>43</dim>
					<dim>57</dim>
				</port>
				<port id="1">
					<dim>256</dim>
					<dim>128</dim>
					<dim>1</dim>
					<dim>1</dim>
				</port>
			</input>
			<output>
				<port id="2" precision="FP16">
					<dim>1</dim>
					<dim>256</dim>
					<dim>43</dim>
					<dim>57</dim>
				</port>
			</output>
		</layer>
		<layer id="43" name="MobilenetV1/Conv2d_4_pointwise/biases/read/Output_0/Data_/copy_const" type="Const" version="opset1">
			<data element_type="f16" offset="128256" shape="1,256,1,1" size="512"/>
			<output>
				<port id="1" precision="FP16">
					<dim>1</dim>
					<dim>256</dim>
					<dim>1</dim>
					<dim>1</dim>
				</port>
			</output>
		</layer>
		<layer id="44" name="MobilenetV1/BiasAdd_7/Add" type="Add" version="opset1">
			<input>
				<port id="0">
					<dim>1</dim>
					<dim>256</dim>
					<dim>43</dim>
					<dim>57</dim>
				</port>
				<port id="1">
					<dim>1</dim>
					<dim>256</dim>
					<dim>1</dim>
					<dim>1</dim>
				</port>
			</input>
			<output>
				<port id="2" precision="FP16">
					<dim>1</dim>
					<dim>256</dim>
					<dim>43</dim>
					<dim>57</dim>
				</port>
			</output>
		</layer>
		<layer id="45" name="MobilenetV1/Relu6_8" type="Clamp" version="opset1">
			<data max="6.0" min="0.0"/>
			<input>
				<port id="0">
					<dim>1</dim>
					<dim>256</dim>
					<dim>43</dim>
					<dim>57</dim>
				</port>
			</input>
			<output>
				<port id="1" precision="FP16">
					<dim>1</dim>
					<dim>256</dim>
					<dim>43</dim>
					<dim>57</dim>
				</port>
			</output>
		</layer>
		<layer id="46" name="90899092_const" type="Const" version="opset1">
			<data element_type="f16" offset="128768" shape="256,1,1,3,3" size="4608"/>
			<output>
				<port id="1" precision="FP16">
					<dim>256</dim>
					<dim>1</dim>
					<dim>1</dim>
					<dim>3</dim>
					<dim>3</dim>
				</port>
			</output>
		</layer>
		<layer id="47" name="MobilenetV1/depthwise_4" type="GroupConvolution" version="opset1">
			<data auto_pad="same_upper" dilations="1,1" output_padding="0,0" pads_begin="0,0" pads_end="0,0" strides="1,1"/>
			<input>
				<port id="0">
					<dim>1</dim>
					<dim>256</dim>
					<dim>43</dim>
					<dim>57</dim>
				</port>
				<port id="1">
					<dim>256</dim>
					<dim>1</dim>
					<dim>1</dim>
					<dim>3</dim>
					<dim>3</dim>
				</port>
			</input>
			<output>
				<port id="2" precision="FP16">
					<dim>1</dim>
					<dim>256</dim>
					<dim>43</dim>
					<dim>57</dim>
				</port>
			</output>
		</layer>
		<layer id="48" name="MobilenetV1/Conv2d_5_depthwise/biases/read/Output_0/Data_/copy_const" type="Const" version="opset1">
			<data element_type="f16" offset="133376" shape="1,256,1,1" size="512"/>
			<output>
				<port id="1" precision="FP16">
					<dim>1</dim>
					<dim>256</dim>
					<dim>1</dim>
					<dim>1</dim>
				</port>
			</output>
		</layer>
		<layer id="49" name="MobilenetV1/BiasAdd_8/Add" type="Add" version="opset1">
			<input>
				<port id="0">
					<dim>1</dim>
					<dim>256</dim>
					<dim>43</dim>
					<dim>57</dim>
				</port>
				<port id="1">
					<dim>1</dim>
					<dim>256</dim>
					<dim>1</dim>
					<dim>1</dim>
				</port>
			</input>
			<output>
				<port id="2" precision="FP16">
					<dim>1</dim>
					<dim>256</dim>
					<dim>43</dim>
					<dim>57</dim>
				</port>
			</output>
		</layer>
		<layer id="50" name="MobilenetV1/Relu6_9" type="Clamp" version="opset1">
			<data max="6.0" min="0.0"/>
			<input>
				<port id="0">
					<dim>1</dim>
					<dim>256</dim>
					<dim>43</dim>
					<dim>57</dim>
				</port>
			</input>
			<output>
				<port id="1" precision="FP16">
					<dim>1</dim>
					<dim>256</dim>
					<dim>43</dim>
					<dim>57</dim>
				</port>
			</output>
		</layer>
		<layer id="51" name="MobilenetV1/Conv2d_5_pointwise/weights/read/Output_0/Data__const" type="Const" version="opset1">
			<data element_type="f16" offset="133888" shape="256,256,1,1" size="131072"/>
			<output>
				<port id="1" precision="FP16">
					<dim>256</dim>
					<dim>256</dim>
					<dim>1</dim>
					<dim>1</dim>
				</port>
			</output>
		</layer>
		<layer id="52" name="MobilenetV1/Conv2D_5" type="Convolution" version="opset1">
			<data auto_pad="same_upper" dilations="1,1" output_padding="0,0" pads_begin="0,0" pads_end="0,0" strides="1,1"/>
			<input>
				<port id="0">
					<dim>1</dim>
					<dim>256</dim>
					<dim>43</dim>
					<dim>57</dim>
				</port>
				<port id="1">
					<dim>256</dim>
					<dim>256</dim>
					<dim>1</dim>
					<dim>1</dim>
				</port>
			</input>
			<output>
				<port id="2" precision="FP16">
					<dim>1</dim>
					<dim>256</dim>
					<dim>43</dim>
					<dim>57</dim>
				</port>
			</output>
		</layer>
		<layer id="53" name="MobilenetV1/Conv2d_5_pointwise/biases/read/Output_0/Data_/copy_const" type="Const" version="opset1">
			<data element_type="f16" offset="264960" shape="1,256,1,1" size="512"/>
			<output>
				<port id="1" precision="FP16">
					<dim>1</dim>
					<dim>256</dim>
					<dim>1</dim>
					<dim>1</dim>
				</port>
			</output>
		</layer>
		<layer id="54" name="MobilenetV1/BiasAdd_9/Add" type="Add" version="opset1">
			<input>
				<port id="0">
					<dim>1</dim>
					<dim>256</dim>
					<dim>43</dim>
					<dim>57</dim>
				</port>
				<port id="1">
					<dim>1</dim>
					<dim>256</dim>
					<dim>1</dim>
					<dim>1</dim>
				</port>
			</input>
			<output>
				<port id="2" precision="FP16">
					<dim>1</dim>
					<dim>256</dim>
					<dim>43</dim>
					<dim>57</dim>
				</port>
			</output>
		</layer>
		<layer id="55" name="MobilenetV1/Relu6_10" type="Clamp" version="opset1">
			<data max="6.0" min="0.0"/>
			<input>
				<port id="0">
					<dim>1</dim>
					<dim>256</dim>
					<dim>43</dim>
					<dim>57</dim>
				</port>
			</input>
			<output>
				<port id="1" precision="FP16">
					<dim>1</dim>
					<dim>256</dim>
					<dim>43</dim>
					<dim>57</dim>
				</port>
			</output>
		</layer>
		<layer id="56" name="90539056_const" type="Const" version="opset1">
			<data element_type="f16" offset="265472" shape="256,1,1,3,3" size="4608"/>
			<output>
				<port id="1" precision="FP16">
					<dim>256</dim>
					<dim>1</dim>
					<dim>1</dim>
					<dim>3</dim>
					<dim>3</dim>
				</port>
			</output>
		</layer>
		<layer id="57" name="MobilenetV1/depthwise_5" type="GroupConvolution" version="opset1">
			<data auto_pad="same_upper" dilations="1,1" output_padding="0,0" pads_begin="0,0" pads_end="0,0" strides="2,2"/>
			<input>
				<port id="0">
					<dim>1</dim>
					<dim>256</dim>
					<dim>43</dim>
					<dim>57</dim>
				</port>
				<port id="1">
					<dim>256</dim>
					<dim>1</dim>
					<dim>1</dim>
					<dim>3</dim>
					<dim>3</dim>
				</port>
			</input>
			<output>
				<port id="2" precision="FP16">
					<dim>1</dim>
					<dim>256</dim>
					<dim>22</dim>
					<dim>29</dim>
				</port>
			</output>
		</layer>
		<layer id="58" name="MobilenetV1/Conv2d_6_depthwise/biases/read/Output_0/Data_/copy_const" type="Const" version="opset1">
			<data element_type="f16" offset="270080" shape="1,256,1,1" size="512"/>
			<output>
				<port id="1" precision="FP16">
					<dim>1</dim>
					<dim>256</dim>
					<dim>1</dim>
					<dim>1</dim>
				</port>
			</output>
		</layer>
		<layer id="59" name="MobilenetV1/BiasAdd_10/Add" type="Add" version="opset1">
			<input>
				<port id="0">
					<dim>1</dim>
					<dim>256</dim>
					<dim>22</dim>
					<dim>29</dim>
				</port>
				<port id="1">
					<dim>1</dim>
					<dim>256</dim>
					<dim>1</dim>
					<dim>1</dim>
				</port>
			</input>
			<output>
				<port id="2" precision="FP16">
					<dim>1</dim>
					<dim>256</dim>
					<dim>22</dim>
					<dim>29</dim>
				</port>
			</output>
		</layer>
		<layer id="60" name="MobilenetV1/Relu6_11" type="Clamp" version="opset1">
			<data max="6.0" min="0.0"/>
			<input>
				<port id="0">
					<dim>1</dim>
					<dim>256</dim>
					<dim>22</dim>
					<dim>29</dim>
				</port>
			</input>
			<output>
				<port id="1" precision="FP16">
					<dim>1</dim>
					<dim>256</dim>
					<dim>22</dim>
					<dim>29</dim>
				</port>
			</output>
		</layer>
		<layer id="61" name="MobilenetV1/Conv2d_6_pointwise/weights/read/Output_0/Data__const" type="Const" version="opset1">
			<data element_type="f16" offset="270592" shape="512,256,1,1" size="262144"/>
			<output>
				<port id="1" precision="FP16">
					<dim>512</dim>
					<dim>256</dim>
					<dim>1</dim>
					<dim>1</dim>
				</port>
			</output>
		</layer>
		<layer id="62" name="MobilenetV1/Conv2D_6" type="Convolution" version="opset1">
			<data auto_pad="same_upper" dilations="1,1" output_padding="0,0" pads_begin="0,0" pads_end="0,0" strides="1,1"/>
			<input>
				<port id="0">
					<dim>1</dim>
					<dim>256</dim>
					<dim>22</dim>
					<dim>29</dim>
				</port>
				<port id="1">
					<dim>512</dim>
					<dim>256</dim>
					<dim>1</dim>
					<dim>1</dim>
				</port>
			</input>
			<output>
				<port id="2" precision="FP16">
					<dim>1</dim>
					<dim>512</dim>
					<dim>22</dim>
					<dim>29</dim>
				</port>
			</output>
		</layer>
		<layer id="63" name="MobilenetV1/Conv2d_6_pointwise/biases/read/Output_0/Data_/copy_const" type="Const" version="opset1">
			<data element_type="f16" offset="532736" shape="1,512,1,1" size="1024"/>
			<output>
				<port id="1" precision="FP16">
					<dim>1</dim>
					<dim>512</dim>
					<dim>1</dim>
					<dim>1</dim>
				</port>
			</output>
		</layer>
		<layer id="64" name="MobilenetV1/BiasAdd_11/Add" type="Add" version="opset1">
			<input>
				<port id="0">
					<dim>1</dim>
					<dim>512</dim>
					<dim>22</dim>
					<dim>29</dim>
				</port>
				<port id="1">
					<dim>1</dim>
					<dim>512</dim>
					<dim>1</dim>
					<dim>1</dim>
				</port>
			</input>
			<output>
				<port id="2" precision="FP16">
					<dim>1</dim>
					<dim>512</dim>
					<dim>22</dim>
					<dim>29</dim>
				</port>
			</output>
		</layer>
		<layer id="65" name="MobilenetV1/Relu6_12" type="Clamp" version="opset1">
			<data max="6.0" min="0.0"/>
			<input>
				<port id="0">
					<dim>1</dim>
					<dim>512</dim>
					<dim>22</dim>
					<dim>29</dim>
				</port>
			</input>
			<output>
				<port id="1" precision="FP16">
					<dim>1</dim>
					<dim>512</dim>
					<dim>22</dim>
					<dim>29</dim>
				</port>
			</output>
		</layer>
		<layer id="66" name="90739076_const" type="Const" version="opset1">
			<data element_type="f16" offset="533760" shape="512,1,1,3,3" size="9216"/>
			<output>
				<port id="1" precision="FP16">
					<dim>512</dim>
					<dim>1</dim>
					<dim>1</dim>
					<dim>3</dim>
					<dim>3</dim>
				</port>
			</output>
		</layer>
		<layer id="67" name="MobilenetV1/depthwise_6" type="GroupConvolution" version="opset1">
			<data auto_pad="same_upper" dilations="1,1" output_padding="0,0" pads_begin="0,0" pads_end="0,0" strides="1,1"/>
			<input>
				<port id="0">
					<dim>1</dim>
					<dim>512</dim>
					<dim>22</dim>
					<dim>29</dim>
				</port>
				<port id="1">
					<dim>512</dim>
					<dim>1</dim>
					<dim>1</dim>
					<dim>3</dim>
					<dim>3</dim>
				</port>
			</input>
			<output>
				<port id="2" precision="FP16">
					<dim>1</dim>
					<dim>512</dim>
					<dim>22</dim>
					<dim>29</dim>
				</port>
			</output>
		</layer>
		<layer id="68" name="MobilenetV1/Conv2d_7_depthwise/biases/read/Output_0/Data_/copy_const" type="Const" version="opset1">
			<data element_type="f16" offset="542976" shape="1,512,1,1" size="1024"/>
			<output>
				<port id="1" precision="FP16">
					<dim>1</dim>
					<dim>512</dim>
					<dim>1</dim>
					<dim>1</dim>
				</port>
			</output>
		</layer>
		<layer id="69" name="MobilenetV1/BiasAdd_12/Add" type="Add" version="opset1">
			<input>
				<port id="0">
					<dim>1</dim>
					<dim>512</dim>
					<dim>22</dim>
					<dim>29</dim>
				</port>
				<port id="1">
					<dim>1</dim>
					<dim>512</dim>
					<dim>1</dim>
					<dim>1</dim>
				</port>
			</input>
			<output>
				<port id="2" precision="FP16">
					<dim>1</dim>
					<dim>512</dim>
					<dim>22</dim>
					<dim>29</dim>
				</port>
			</output>
		</layer>
		<layer id="70" name="MobilenetV1/Relu6_13" type="Clamp" version="opset1">
			<data max="6.0" min="0.0"/>
			<input>
				<port id="0">
					<dim>1</dim>
					<dim>512</dim>
					<dim>22</dim>
					<dim>29</dim>
				</port>
			</input>
			<output>
				<port id="1" precision="FP16">
					<dim>1</dim>
					<dim>512</dim>
					<dim>22</dim>
					<dim>29</dim>
				</port>
			</output>
		</layer>
		<layer id="71" name="MobilenetV1/Conv2d_7_pointwise/weights/read/Output_0/Data__const" type="Const" version="opset1">
			<data element_type="f16" offset="544000" shape="512,512,1,1" size="524288"/>
			<output>
				<port id="1" precision="FP16">
					<dim>512</dim>
					<dim>512</dim>
					<dim>1</dim>
					<dim>1</dim>
				</port>
			</output>
		</layer>
		<layer id="72" name="MobilenetV1/Conv2D_7" type="Convolution" version="opset1">
			<data auto_pad="same_upper" dilations="1,1" output_padding="0,0" pads_begin="0,0" pads_end="0,0" strides="1,1"/>
			<input>
				<port id="0">
					<dim>1</dim>
					<dim>512</dim>
					<dim>22</dim>
					<dim>29</dim>
				</port>
				<port id="1">
					<dim>512</dim>
					<dim>512</dim>
					<dim>1</dim>
					<dim>1</dim>
				</port>
			</input>
			<output>
				<port id="2" precision="FP16">
					<dim>1</dim>
					<dim>512</dim>
					<dim>22</dim>
					<dim>29</dim>
				</port>
			</output>
		</layer>
		<layer id="73" name="MobilenetV1/Conv2d_7_pointwise/biases/read/Output_0/Data_/copy_const" type="Const" version="opset1">
			<data element_type="f16" offset="1068288" shape="1,512,1,1" size="1024"/>
			<output>
				<port id="1" precision="FP16">
					<dim>1</dim>
					<dim>512</dim>
					<dim>1</dim>
					<dim>1</dim>
				</port>
			</output>
		</layer>
		<layer id="74" name="MobilenetV1/BiasAdd_13/Add" type="Add" version="opset1">
			<input>
				<port id="0">
					<dim>1</dim>
					<dim>512</dim>
					<dim>22</dim>
					<dim>29</dim>
				</port>
				<port id="1">
					<dim>1</dim>
					<dim>512</dim>
					<dim>1</dim>
					<dim>1</dim>
				</port>
			</input>
			<output>
				<port id="2" precision="FP16">
					<dim>1</dim>
					<dim>512</dim>
					<dim>22</dim>
					<dim>29</dim>
				</port>
			</output>
		</layer>
		<layer id="75" name="MobilenetV1/Relu6_14" type="Clamp" version="opset1">
			<data max="6.0" min="0.0"/>
			<input>
				<port id="0">
					<dim>1</dim>
					<dim>512</dim>
					<dim>22</dim>
					<dim>29</dim>
				</port>
			</input>
			<output>
				<port id="1" precision="FP16">
					<dim>1</dim>
					<dim>512</dim>
					<dim>22</dim>
					<dim>29</dim>
				</port>
			</output>
		</layer>
		<layer id="76" name="90579060_const" type="Const" version="opset1">
			<data element_type="f16" offset="1069312" shape="512,1,1,3,3" size="9216"/>
			<output>
				<port id="1" precision="FP16">
					<dim>512</dim>
					<dim>1</dim>
					<dim>1</dim>
					<dim>3</dim>
					<dim>3</dim>
				</port>
			</output>
		</layer>
		<layer id="77" name="MobilenetV1/depthwise_7" type="GroupConvolution" version="opset1">
			<data auto_pad="same_upper" dilations="1,1" output_padding="0,0" pads_begin="0,0" pads_end="0,0" strides="1,1"/>
			<input>
				<port id="0">
					<dim>1</dim>
					<dim>512</dim>
					<dim>22</dim>
					<dim>29</dim>
				</port>
				<port id="1">
					<dim>512</dim>
					<dim>1</dim>
					<dim>1</dim>
					<dim>3</dim>
					<dim>3</dim>
				</port>
			</input>
			<output>
				<port id="2" precision="FP16">
					<dim>1</dim>
					<dim>512</dim>
					<dim>22</dim>
					<dim>29</dim>
				</port>
			</output>
		</layer>
		<layer id="78" name="MobilenetV1/Conv2d_8_depthwise/biases/read/Output_0/Data_/copy_const" type="Const" version="opset1">
			<data element_type="f16" offset="1078528" shape="1,512,1,1" size="1024"/>
			<output>
				<port id="1" precision="FP16">
					<dim>1</dim>
					<dim>512</dim>
					<dim>1</dim>
					<dim>1</dim>
				</port>
			</output>
		</layer>
		<layer id="79" name="MobilenetV1/BiasAdd_14/Add" type="Add" version="opset1">
			<input>
				<port id="0">
					<dim>1</dim>
					<dim>512</dim>
					<dim>22</dim>
					<dim>29</dim>
				</port>
				<port id="1">
					<dim>1</dim>
					<dim>512</dim>
					<dim>1</dim>
					<dim>1</dim>
				</port>
			</input>
			<output>
				<port id="2" precision="FP16">
					<dim>1</dim>
					<dim>512</dim>
					<dim>22</dim>
					<dim>29</dim>
				</port>
			</output>
		</layer>
		<layer id="80" name="MobilenetV1/Relu6_15" type="Clamp" version="opset1">
			<data max="6.0" min="0.0"/>
			<input>
				<port id="0">
					<dim>1</dim>
					<dim>512</dim>
					<dim>22</dim>
					<dim>29</dim>
				</port>
			</input>
			<output>
				<port id="1" precision="FP16">
					<dim>1</dim>
					<dim>512</dim>
					<dim>22</dim>
					<dim>29</dim>
				</port>
			</output>
		</layer>
		<layer id="81" name="MobilenetV1/Conv2d_8_pointwise/weights/read/Output_0/Data__const" type="Const" version="opset1">
			<data element_type="f16" offset="1079552" shape="512,512,1,1" size="524288"/>
			<output>
				<port id="1" precision="FP16">
					<dim>512</dim>
					<dim>512</dim>
					<dim>1</dim>
					<dim>1</dim>
				</port>
			</output>
		</layer>
		<layer id="82" name="MobilenetV1/Conv2D_8" type="Convolution" version="opset1">
			<data auto_pad="same_upper" dilations="1,1" output_padding="0,0" pads_begin="0,0" pads_end="0,0" strides="1,1"/>
			<input>
				<port id="0">
					<dim>1</dim>
					<dim>512</dim>
					<dim>22</dim>
					<dim>29</dim>
				</port>
				<port id="1">
					<dim>512</dim>
					<dim>512</dim>
					<dim>1</dim>
					<dim>1</dim>
				</port>
			</input>
			<output>
				<port id="2" precision="FP16">
					<dim>1</dim>
					<dim>512</dim>
					<dim>22</dim>
					<dim>29</dim>
				</port>
			</output>
		</layer>
		<layer id="83" name="MobilenetV1/Conv2d_8_pointwise/biases/read/Output_0/Data_/copy_const" type="Const" version="opset1">
			<data element_type="f16" offset="1603840" shape="1,512,1,1" size="1024"/>
			<output>
				<port id="1" precision="FP16">
					<dim>1</dim>
					<dim>512</dim>
					<dim>1</dim>
					<dim>1</dim>
				</port>
			</output>
		</layer>
		<layer id="84" name="MobilenetV1/BiasAdd_15/Add" type="Add" version="opset1">
			<input>
				<port id="0">
					<dim>1</dim>
					<dim>512</dim>
					<dim>22</dim>
					<dim>29</dim>
				</port>
				<port id="1">
					<dim>1</dim>
					<dim>512</dim>
					<dim>1</dim>
					<dim>1</dim>
				</port>
			</input>
			<output>
				<port id="2" precision="FP16">
					<dim>1</dim>
					<dim>512</dim>
					<dim>22</dim>
					<dim>29</dim>
				</port>
			</output>
		</layer>
		<layer id="85" name="MobilenetV1/Relu6_16" type="Clamp" version="opset1">
			<data max="6.0" min="0.0"/>
			<input>
				<port id="0">
					<dim>1</dim>
					<dim>512</dim>
					<dim>22</dim>
					<dim>29</dim>
				</port>
			</input>
			<output>
				<port id="1" precision="FP16">
					<dim>1</dim>
					<dim>512</dim>
					<dim>22</dim>
					<dim>29</dim>
				</port>
			</output>
		</layer>
		<layer id="86" name="90859088_const" type="Const" version="opset1">
			<data element_type="f16" offset="1604864" shape="512,1,1,3,3" size="9216"/>
			<output>
				<port id="1" precision="FP16">
					<dim>512</dim>
					<dim>1</dim>
					<dim>1</dim>
					<dim>3</dim>
					<dim>3</dim>
				</port>
			</output>
		</layer>
		<layer id="87" name="MobilenetV1/depthwise_8" type="GroupConvolution" version="opset1">
			<data auto_pad="same_upper" dilations="1,1" output_padding="0,0" pads_begin="0,0" pads_end="0,0" strides="1,1"/>
			<input>
				<port id="0">
					<dim>1</dim>
					<dim>512</dim>
					<dim>22</dim>
					<dim>29</dim>
				</port>
				<port id="1">
					<dim>512</dim>
					<dim>1</dim>
					<dim>1</dim>
					<dim>3</dim>
					<dim>3</dim>
				</port>
			</input>
			<output>
				<port id="2" precision="FP16">
					<dim>1</dim>
					<dim>512</dim>
					<dim>22</dim>
					<dim>29</dim>
				</port>
			</output>
		</layer>
		<layer id="88" name="MobilenetV1/Conv2d_9_depthwise/biases/read/Output_0/Data_/copy_const" type="Const" version="opset1">
			<data element_type="f16" offset="1614080" shape="1,512,1,1" size="1024"/>
			<output>
				<port id="1" precision="FP16">
					<dim>1</dim>
					<dim>512</dim>
					<dim>1</dim>
					<dim>1</dim>
				</port>
			</output>
		</layer>
		<layer id="89" name="MobilenetV1/BiasAdd_16/Add" type="Add" version="opset1">
			<input>
				<port id="0">
					<dim>1</dim>
					<dim>512</dim>
					<dim>22</dim>
					<dim>29</dim>
				</port>
				<port id="1">
					<dim>1</dim>
					<dim>512</dim>
					<dim>1</dim>
					<dim>1</dim>
				</port>
			</input>
			<output>
				<port id="2" precision="FP16">
					<dim>1</dim>
					<dim>512</dim>
					<dim>22</dim>
					<dim>29</dim>
				</port>
			</output>
		</layer>
		<layer id="90" name="MobilenetV1/Relu6_17" type="Clamp" version="opset1">
			<data max="6.0" min="0.0"/>
			<input>
				<port id="0">
					<dim>1</dim>
					<dim>512</dim>
					<dim>22</dim>
					<dim>29</dim>
				</port>
			</input>
			<output>
				<port id="1" precision="FP16">
					<dim>1</dim>
					<dim>512</dim>
					<dim>22</dim>
					<dim>29</dim>
				</port>
			</output>
		</layer>
		<layer id="91" name="MobilenetV1/Conv2d_9_pointwise/weights/read/Output_0/Data__const" type="Const" version="opset1">
			<data element_type="f16" offset="1615104" shape="512,512,1,1" size="524288"/>
			<output>
				<port id="1" precision="FP16">
					<dim>512</dim>
					<dim>512</dim>
					<dim>1</dim>
					<dim>1</dim>
				</port>
			</output>
		</layer>
		<layer id="92" name="MobilenetV1/Conv2D_9" type="Convolution" version="opset1">
			<data auto_pad="same_upper" dilations="1,1" output_padding="0,0" pads_begin="0,0" pads_end="0,0" strides="1,1"/>
			<input>
				<port id="0">
					<dim>1</dim>
					<dim>512</dim>
					<dim>22</dim>
					<dim>29</dim>
				</port>
				<port id="1">
					<dim>512</dim>
					<dim>512</dim>
					<dim>1</dim>
					<dim>1</dim>
				</port>
			</input>
			<output>
				<port id="2" precision="FP16">
					<dim>1</dim>
					<dim>512</dim>
					<dim>22</dim>
					<dim>29</dim>
				</port>
			</output>
		</layer>
		<layer id="93" name="MobilenetV1/Conv2d_9_pointwise/biases/read/Output_0/Data_/copy_const" type="Const" version="opset1">
			<data element_type="f16" offset="2139392" shape="1,512,1,1" size="1024"/>
			<output>
				<port id="1" precision="FP16">
					<dim>1</dim>
					<dim>512</dim>
					<dim>1</dim>
					<dim>1</dim>
				</port>
			</output>
		</layer>
		<layer id="94" name="MobilenetV1/BiasAdd_17/Add" type="Add" version="opset1">
			<input>
				<port id="0">
					<dim>1</dim>
					<dim>512</dim>
					<dim>22</dim>
					<dim>29</dim>
				</port>
				<port id="1">
					<dim>1</dim>
					<dim>512</dim>
					<dim>1</dim>
					<dim>1</dim>
				</port>
			</input>
			<output>
				<port id="2" precision="FP16">
					<dim>1</dim>
					<dim>512</dim>
					<dim>22</dim>
					<dim>29</dim>
				</port>
			</output>
		</layer>
		<layer id="95" name="MobilenetV1/Relu6_18" type="Clamp" version="opset1">
			<data max="6.0" min="0.0"/>
			<input>
				<port id="0">
					<dim>1</dim>
					<dim>512</dim>
					<dim>22</dim>
					<dim>29</dim>
				</port>
			</input>
			<output>
				<port id="1" precision="FP16">
					<dim>1</dim>
					<dim>512</dim>
					<dim>22</dim>
					<dim>29</dim>
				</port>
			</output>
		</layer>
		<layer id="96" name="90939096_const" type="Const" version="opset1">
			<data element_type="f16" offset="2140416" shape="512,1,1,3,3" size="9216"/>
			<output>
				<port id="1" precision="FP16">
					<dim>512</dim>
					<dim>1</dim>
					<dim>1</dim>
					<dim>3</dim>
					<dim>3</dim>
				</port>
			</output>
		</layer>
		<layer id="97" name="MobilenetV1/depthwise_9" type="GroupConvolution" version="opset1">
			<data auto_pad="same_upper" dilations="1,1" output_padding="0,0" pads_begin="0,0" pads_end="0,0" strides="1,1"/>
			<input>
				<port id="0">
					<dim>1</dim>
					<dim>512</dim>
					<dim>22</dim>
					<dim>29</dim>
				</port>
				<port id="1">
					<dim>512</dim>
					<dim>1</dim>
					<dim>1</dim>
					<dim>3</dim>
					<dim>3</dim>
				</port>
			</input>
			<output>
				<port id="2" precision="FP16">
					<dim>1</dim>
					<dim>512</dim>
					<dim>22</dim>
					<dim>29</dim>
				</port>
			</output>
		</layer>
		<layer id="98" name="MobilenetV1/Conv2d_10_depthwise/biases/read/Output_0/Data_/copy_const" type="Const" version="opset1">
			<data element_type="f16" offset="2149632" shape="1,512,1,1" size="1024"/>
			<output>
				<port id="1" precision="FP16">
					<dim>1</dim>
					<dim>512</dim>
					<dim>1</dim>
					<dim>1</dim>
				</port>
			</output>
		</layer>
		<layer id="99" name="MobilenetV1/BiasAdd_18/Add" type="Add" version="opset1">
			<input>
				<port id="0">
					<dim>1</dim>
					<dim>512</dim>
					<dim>22</dim>
					<dim>29</dim>
				</port>
				<port id="1">
					<dim>1</dim>
					<dim>512</dim>
					<dim>1</dim>
					<dim>1</dim>
				</port>
			</input>
			<output>
				<port id="2" precision="FP16">
					<dim>1</dim>
					<dim>512</dim>
					<dim>22</dim>
					<dim>29</dim>
				</port>
			</output>
		</layer>
		<layer id="100" name="MobilenetV1/Relu6_19" type="Clamp" version="opset1">
			<data max="6.0" min="0.0"/>
			<input>
				<port id="0">
					<dim>1</dim>
					<dim>512</dim>
					<dim>22</dim>
					<dim>29</dim>
				</port>
			</input>
			<output>
				<port id="1" precision="FP16">
					<dim>1</dim>
					<dim>512</dim>
					<dim>22</dim>
					<dim>29</dim>
				</port>
			</output>
		</layer>
		<layer id="101" name="MobilenetV1/Conv2d_10_pointwise/weights/read/Output_0/Data__const" type="Const" version="opset1">
			<data element_type="f16" offset="2150656" shape="512,512,1,1" size="524288"/>
			<output>
				<port id="1" precision="FP16">
					<dim>512</dim>
					<dim>512</dim>
					<dim>1</dim>
					<dim>1</dim>
				</port>
			</output>
		</layer>
		<layer id="102" name="MobilenetV1/Conv2D_10" type="Convolution" version="opset1">
			<data auto_pad="same_upper" dilations="1,1" output_padding="0,0" pads_begin="0,0" pads_end="0,0" strides="1,1"/>
			<input>
				<port id="0">
					<dim>1</dim>
					<dim>512</dim>
					<dim>22</dim>
					<dim>29</dim>
				</port>
				<port id="1">
					<dim>512</dim>
					<dim>512</dim>
					<dim>1</dim>
					<dim>1</dim>
				</port>
			</input>
			<output>
				<port id="2" precision="FP16">
					<dim>1</dim>
					<dim>512</dim>
					<dim>22</dim>
					<dim>29</dim>
				</port>
			</output>
		</layer>
		<layer id="103" name="MobilenetV1/Conv2d_10_pointwise/biases/read/Output_0/Data_/copy_const" type="Const" version="opset1">
			<data element_type="f16" offset="2674944" shape="1,512,1,1" size="1024"/>
			<output>
				<port id="1" precision="FP16">
					<dim>1</dim>
					<dim>512</dim>
					<dim>1</dim>
					<dim>1</dim>
				</port>
			</output>
		</layer>
		<layer id="104" name="MobilenetV1/BiasAdd_19/Add" type="Add" version="opset1">
			<input>
				<port id="0">
					<dim>1</dim>
					<dim>512</dim>
					<dim>22</dim>
					<dim>29</dim>
				</port>
				<port id="1">
					<dim>1</dim>
					<dim>512</dim>
					<dim>1</dim>
					<dim>1</dim>
				</port>
			</input>
			<output>
				<port id="2" precision="FP16">
					<dim>1</dim>
					<dim>512</dim>
					<dim>22</dim>
					<dim>29</dim>
				</port>
			</output>
		</layer>
		<layer id="105" name="MobilenetV1/Relu6_20" type="Clamp" version="opset1">
			<data max="6.0" min="0.0"/>
			<input>
				<port id="0">
					<dim>1</dim>
					<dim>512</dim>
					<dim>22</dim>
					<dim>29</dim>
				</port>
			</input>
			<output>
				<port id="1" precision="FP16">
					<dim>1</dim>
					<dim>512</dim>
					<dim>22</dim>
					<dim>29</dim>
				</port>
			</output>
		</layer>
		<layer id="106" name="90779080_const" type="Const" version="opset1">
			<data element_type="f16" offset="2675968" shape="512,1,1,3,3" size="9216"/>
			<output>
				<port id="1" precision="FP16">
					<dim>512</dim>
					<dim>1</dim>
					<dim>1</dim>
					<dim>3</dim>
					<dim>3</dim>
				</port>
			</output>
		</layer>
		<layer id="107" name="MobilenetV1/depthwise_10" type="GroupConvolution" version="opset1">
			<data auto_pad="same_upper" dilations="1,1" output_padding="0,0" pads_begin="0,0" pads_end="0,0" strides="1,1"/>
			<input>
				<port id="0">
					<dim>1</dim>
					<dim>512</dim>
					<dim>22</dim>
					<dim>29</dim>
				</port>
				<port id="1">
					<dim>512</dim>
					<dim>1</dim>
					<dim>1</dim>
					<dim>3</dim>
					<dim>3</dim>
				</port>
			</input>
			<output>
				<port id="2" precision="FP16">
					<dim>1</dim>
					<dim>512</dim>
					<dim>22</dim>
					<dim>29</dim>
				</port>
			</output>
		</layer>
		<layer id="108" name="MobilenetV1/Conv2d_11_depthwise/biases/read/Output_0/Data_/copy_const" type="Const" version="opset1">
			<data element_type="f16" offset="2685184" shape="1,512,1,1" size="1024"/>
			<output>
				<port id="1" precision="FP16">
					<dim>1</dim>
					<dim>512</dim>
					<dim>1</dim>
					<dim>1</dim>
				</port>
			</output>
		</layer>
		<layer id="109" name="MobilenetV1/BiasAdd_20/Add" type="Add" version="opset1">
			<input>
				<port id="0">
					<dim>1</dim>
					<dim>512</dim>
					<dim>22</dim>
					<dim>29</dim>
				</port>
				<port id="1">
					<dim>1</dim>
					<dim>512</dim>
					<dim>1</dim>
					<dim>1</dim>
				</port>
			</input>
			<output>
				<port id="2" precision="FP16">
					<dim>1</dim>
					<dim>512</dim>
					<dim>22</dim>
					<dim>29</dim>
				</port>
			</output>
		</layer>
		<layer id="110" name="MobilenetV1/Relu6_21" type="Clamp" version="opset1">
			<data max="6.0" min="0.0"/>
			<input>
				<port id="0">
					<dim>1</dim>
					<dim>512</dim>
					<dim>22</dim>
					<dim>29</dim>
				</port>
			</input>
			<output>
				<port id="1" precision="FP16">
					<dim>1</dim>
					<dim>512</dim>
					<dim>22</dim>
					<dim>29</dim>
				</port>
			</output>
		</layer>
		<layer id="111" name="MobilenetV1/Conv2d_11_pointwise/weights/read/Output_0/Data__const" type="Const" version="opset1">
			<data element_type="f16" offset="2686208" shape="512,512,1,1" size="524288"/>
			<output>
				<port id="1" precision="FP16">
					<dim>512</dim>
					<dim>512</dim>
					<dim>1</dim>
					<dim>1</dim>
				</port>
			</output>
		</layer>
		<layer id="112" name="MobilenetV1/Conv2D_11" type="Convolution" version="opset1">
			<data auto_pad="same_upper" dilations="1,1" output_padding="0,0" pads_begin="0,0" pads_end="0,0" strides="1,1"/>
			<input>
				<port id="0">
					<dim>1</dim>
					<dim>512</dim>
					<dim>22</dim>
					<dim>29</dim>
				</port>
				<port id="1">
					<dim>512</dim>
					<dim>512</dim>
					<dim>1</dim>
					<dim>1</dim>
				</port>
			</input>
			<output>
				<port id="2" precision="FP16">
					<dim>1</dim>
					<dim>512</dim>
					<dim>22</dim>
					<dim>29</dim>
				</port>
			</output>
		</layer>
		<layer id="113" name="MobilenetV1/Conv2d_11_pointwise/biases/read/Output_0/Data_/copy_const" type="Const" version="opset1">
			<data element_type="f16" offset="3210496" shape="1,512,1,1" size="1024"/>
			<output>
				<port id="1" precision="FP16">
					<dim>1</dim>
					<dim>512</dim>
					<dim>1</dim>
					<dim>1</dim>
				</port>
			</output>
		</layer>
		<layer id="114" name="MobilenetV1/BiasAdd_21/Add" type="Add" version="opset1">
			<input>
				<port id="0">
					<dim>1</dim>
					<dim>512</dim>
					<dim>22</dim>
					<dim>29</dim>
				</port>
				<port id="1">
					<dim>1</dim>
					<dim>512</dim>
					<dim>1</dim>
					<dim>1</dim>
				</port>
			</input>
			<output>
				<port id="2" precision="FP16">
					<dim>1</dim>
					<dim>512</dim>
					<dim>22</dim>
					<dim>29</dim>
				</port>
			</output>
		</layer>
		<layer id="115" name="MobilenetV1/Relu6_22" type="Clamp" version="opset1">
			<data max="6.0" min="0.0"/>
			<input>
				<port id="0">
					<dim>1</dim>
					<dim>512</dim>
					<dim>22</dim>
					<dim>29</dim>
				</port>
			</input>
			<output>
				<port id="1" precision="FP16">
					<dim>1</dim>
					<dim>512</dim>
					<dim>22</dim>
					<dim>29</dim>
				</port>
			</output>
		</layer>
		<layer id="116" name="90459048_const" type="Const" version="opset1">
			<data element_type="f16" offset="3211520" shape="512,1,1,3,3" size="9216"/>
			<output>
				<port id="1" precision="FP16">
					<dim>512</dim>
					<dim>1</dim>
					<dim>1</dim>
					<dim>3</dim>
					<dim>3</dim>
				</port>
			</output>
		</layer>
		<layer id="117" name="MobilenetV1/depthwise_11" type="GroupConvolution" version="opset1">
			<data auto_pad="same_upper" dilations="1,1" output_padding="0,0" pads_begin="0,0" pads_end="0,0" strides="1,1"/>
			<input>
				<port id="0">
					<dim>1</dim>
					<dim>512</dim>
					<dim>22</dim>
					<dim>29</dim>
				</port>
				<port id="1">
					<dim>512</dim>
					<dim>1</dim>
					<dim>1</dim>
					<dim>3</dim>
					<dim>3</dim>
				</port>
			</input>
			<output>
				<port id="2" precision="FP16">
					<dim>1</dim>
					<dim>512</dim>
					<dim>22</dim>
					<dim>29</dim>
				</port>
			</output>
		</layer>
		<layer id="118" name="MobilenetV1/Conv2d_12_depthwise/biases/read/Output_0/Data_/copy_const" type="Const" version="opset1">
			<data element_type="f16" offset="3220736" shape="1,512,1,1" size="1024"/>
			<output>
				<port id="1" precision="FP16">
					<dim>1</dim>
					<dim>512</dim>
					<dim>1</dim>
					<dim>1</dim>
				</port>
			</output>
		</layer>
		<layer id="119" name="MobilenetV1/BiasAdd_22/Add" type="Add" version="opset1">
			<input>
				<port id="0">
					<dim>1</dim>
					<dim>512</dim>
					<dim>22</dim>
					<dim>29</dim>
				</port>
				<port id="1">
					<dim>1</dim>
					<dim>512</dim>
					<dim>1</dim>
					<dim>1</dim>
				</port>
			</input>
			<output>
				<port id="2" precision="FP16">
					<dim>1</dim>
					<dim>512</dim>
					<dim>22</dim>
					<dim>29</dim>
				</port>
			</output>
		</layer>
		<layer id="120" name="MobilenetV1/Relu6_23" type="Clamp" version="opset1">
			<data max="6.0" min="0.0"/>
			<input>
				<port id="0">
					<dim>1</dim>
					<dim>512</dim>
					<dim>22</dim>
					<dim>29</dim>
				</port>
			</input>
			<output>
				<port id="1" precision="FP16">
					<dim>1</dim>
					<dim>512</dim>
					<dim>22</dim>
					<dim>29</dim>
				</port>
			</output>
		</layer>
		<layer id="121" name="MobilenetV1/Conv2d_12_pointwise/weights/read/Output_0/Data__const" type="Const" version="opset1">
			<data element_type="f16" offset="3221760" shape="1024,512,1,1" size="1048576"/>
			<output>
				<port id="1" precision="FP16">
					<dim>1024</dim>
					<dim>512</dim>
					<dim>1</dim>
					<dim>1</dim>
				</port>
			</output>
		</layer>
		<layer id="122" name="MobilenetV1/Conv2D_12" type="Convolution" version="opset1">
			<data auto_pad="same_upper" dilations="1,1" output_padding="0,0" pads_begin="0,0" pads_end="0,0" strides="1,1"/>
			<input>
				<port id="0">
					<dim>1</dim>
					<dim>512</dim>
					<dim>22</dim>
					<dim>29</dim>
				</port>
				<port id="1">
					<dim>1024</dim>
					<dim>512</dim>
					<dim>1</dim>
					<dim>1</dim>
				</port>
			</input>
			<output>
				<port id="2" precision="FP16">
					<dim>1</dim>
					<dim>1024</dim>
					<dim>22</dim>
					<dim>29</dim>
				</port>
			</output>
		</layer>
		<layer id="123" name="MobilenetV1/Conv2d_12_pointwise/biases/read/Output_0/Data_/copy_const" type="Const" version="opset1">
			<data element_type="f16" offset="4270336" shape="1,1024,1,1" size="2048"/>
			<output>
				<port id="1" precision="FP16">
					<dim>1</dim>
					<dim>1024</dim>
					<dim>1</dim>
					<dim>1</dim>
				</port>
			</output>
		</layer>
		<layer id="124" name="MobilenetV1/BiasAdd_23/Add" type="Add" version="opset1">
			<input>
				<port id="0">
					<dim>1</dim>
					<dim>1024</dim>
					<dim>22</dim>
					<dim>29</dim>
				</port>
				<port id="1">
					<dim>1</dim>
					<dim>1024</dim>
					<dim>1</dim>
					<dim>1</dim>
				</port>
			</input>
			<output>
				<port id="2" precision="FP16">
					<dim>1</dim>
					<dim>1024</dim>
					<dim>22</dim>
					<dim>29</dim>
				</port>
			</output>
		</layer>
		<layer id="125" name="MobilenetV1/Relu6_24" type="Clamp" version="opset1">
			<data max="6.0" min="0.0"/>
			<input>
				<port id="0">
					<dim>1</dim>
					<dim>1024</dim>
					<dim>22</dim>
					<dim>29</dim>
				</port>
			</input>
			<output>
				<port id="1" precision="FP16">
					<dim>1</dim>
					<dim>1024</dim>
					<dim>22</dim>
					<dim>29</dim>
				</port>
			</output>
		</layer>
		<layer id="126" name="90499052_const" type="Const" version="opset1">
			<data element_type="f16" offset="4272384" shape="1024,1,1,3,3" size="18432"/>
			<output>
				<port id="1" precision="FP16">
					<dim>1024</dim>
					<dim>1</dim>
					<dim>1</dim>
					<dim>3</dim>
					<dim>3</dim>
				</port>
			</output>
		</layer>
		<layer id="127" name="MobilenetV1/depthwise_12" type="GroupConvolution" version="opset1">
			<data dilations="2,2" output_padding="0,0" pads_begin="2,2" pads_end="2,2" strides="1,1"/>
			<input>
				<port id="0">
					<dim>1</dim>
					<dim>1024</dim>
					<dim>22</dim>
					<dim>29</dim>
				</port>
				<port id="1">
					<dim>1024</dim>
					<dim>1</dim>
					<dim>1</dim>
					<dim>3</dim>
					<dim>3</dim>
				</port>
			</input>
			<output>
				<port id="2" precision="FP16">
					<dim>1</dim>
					<dim>1024</dim>
					<dim>22</dim>
					<dim>29</dim>
				</port>
			</output>
		</layer>
		<layer id="128" name="MobilenetV1/Conv2d_13_depthwise/biases/read/Output_0/Data_/copy_const" type="Const" version="opset1">
			<data element_type="f16" offset="4290816" shape="1,1024,1,1" size="2048"/>
			<output>
				<port id="1" precision="FP16">
					<dim>1</dim>
					<dim>1024</dim>
					<dim>1</dim>
					<dim>1</dim>
				</port>
			</output>
		</layer>
		<layer id="129" name="MobilenetV1/BiasAdd_24/Add" type="Add" version="opset1">
			<input>
				<port id="0">
					<dim>1</dim>
					<dim>1024</dim>
					<dim>22</dim>
					<dim>29</dim>
				</port>
				<port id="1">
					<dim>1</dim>
					<dim>1024</dim>
					<dim>1</dim>
					<dim>1</dim>
				</port>
			</input>
			<output>
				<port id="2" precision="FP16">
					<dim>1</dim>
					<dim>1024</dim>
					<dim>22</dim>
					<dim>29</dim>
				</port>
			</output>
		</layer>
		<layer id="130" name="MobilenetV1/Relu6_25" type="Clamp" version="opset1">
			<data max="6.0" min="0.0"/>
			<input>
				<port id="0">
					<dim>1</dim>
					<dim>1024</dim>
					<dim>22</dim>
					<dim>29</dim>
				</port>
			</input>
			<output>
				<port id="1" precision="FP16">
					<dim>1</dim>
					<dim>1024</dim>
					<dim>22</dim>
					<dim>29</dim>
				</port>
			</output>
		</layer>
		<layer id="131" name="MobilenetV1/Conv2d_13_pointwise/weights/read/Output_0/Data__const" type="Const" version="opset1">
			<data element_type="f16" offset="4292864" shape="1024,1024,1,1" size="2097152"/>
			<output>
				<port id="1" precision="FP16">
					<dim>1024</dim>
					<dim>1024</dim>
					<dim>1</dim>
					<dim>1</dim>
				</port>
			</output>
		</layer>
		<layer id="132" name="MobilenetV1/Conv2D_13" type="Convolution" version="opset1">
			<data auto_pad="same_upper" dilations="1,1" output_padding="0,0" pads_begin="0,0" pads_end="0,0" strides="1,1"/>
			<input>
				<port id="0">
					<dim>1</dim>
					<dim>1024</dim>
					<dim>22</dim>
					<dim>29</dim>
				</port>
				<port id="1">
					<dim>1024</dim>
					<dim>1024</dim>
					<dim>1</dim>
					<dim>1</dim>
				</port>
			</input>
			<output>
				<port id="2" precision="FP16">
					<dim>1</dim>
					<dim>1024</dim>
					<dim>22</dim>
					<dim>29</dim>
				</port>
			</output>
		</layer>
		<layer id="133" name="MobilenetV1/Conv2d_13_pointwise/biases/read/Output_0/Data_/copy_const" type="Const" version="opset1">
			<data element_type="f16" offset="6390016" shape="1,1024,1,1" size="2048"/>
			<output>
				<port id="1" precision="FP16">
					<dim>1</dim>
					<dim>1024</dim>
					<dim>1</dim>
					<dim>1</dim>
				</port>
			</output>
		</layer>
		<layer id="134" name="MobilenetV1/BiasAdd_25/Add" type="Add" version="opset1">
			<input>
				<port id="0">
					<dim>1</dim>
					<dim>1024</dim>
					<dim>22</dim>
					<dim>29</dim>
				</port>
				<port id="1">
					<dim>1</dim>
					<dim>1024</dim>
					<dim>1</dim>
					<dim>1</dim>
				</port>
			</input>
			<output>
				<port id="2" precision="FP16">
					<dim>1</dim>
					<dim>1024</dim>
					<dim>22</dim>
					<dim>29</dim>
				</port>
			</output>
		</layer>
		<layer id="135" name="MobilenetV1/Relu6_26" type="Clamp" version="opset1">
			<data max="6.0" min="0.0"/>
			<input>
				<port id="0">
					<dim>1</dim>
					<dim>1024</dim>
					<dim>22</dim>
					<dim>29</dim>
				</port>
			</input>
			<output>
				<port id="1" precision="FP16">
					<dim>1</dim>
					<dim>1024</dim>
					<dim>22</dim>
					<dim>29</dim>
				</port>
			</output>
		</layer>
		<layer id="136" name="MobilenetV1/displacement_bwd_2/weights/read/Output_0/Data__const" type="Const" version="opset1">
			<data element_type="f16" offset="6392064" shape="32,1024,1,1" size="65536"/>
			<output>
				<port id="1" precision="FP16">
					<dim>32</dim>
					<dim>1024</dim>
					<dim>1</dim>
					<dim>1</dim>
				</port>
			</output>
		</layer>
		<layer id="137" name="Conv2D_3" type="Convolution" version="opset1">
			<data auto_pad="same_upper" dilations="1,1" output_padding="0,0" pads_begin="0,0" pads_end="0,0" strides="1,1"/>
			<input>
				<port id="0">
					<dim>1</dim>
					<dim>1024</dim>
					<dim>22</dim>
					<dim>29</dim>
				</port>
				<port id="1">
					<dim>32</dim>
					<dim>1024</dim>
					<dim>1</dim>
					<dim>1</dim>
				</port>
			</input>
			<output>
				<port id="2" precision="FP16">
					<dim>1</dim>
					<dim>32</dim>
					<dim>22</dim>
					<dim>29</dim>
				</port>
			</output>
		</layer>
		<layer id="138" name="MobilenetV1/displacement_bwd_2/biases/read/Output_0/Data_/copy_const" type="Const" version="opset1">
			<data element_type="f16" offset="6457600" shape="1,32,1,1" size="64"/>
			<output>
				<port id="1" precision="FP16">
					<dim>1</dim>
					<dim>32</dim>
					<dim>1</dim>
					<dim>1</dim>
				</port>
			</output>
		</layer>
		<layer id="139" name="displacement_bwd_2/Add" type="Add" version="opset1">
			<input>
				<port id="0">
					<dim>1</dim>
					<dim>32</dim>
					<dim>22</dim>
					<dim>29</dim>
				</port>
				<port id="1">
					<dim>1</dim>
					<dim>32</dim>
					<dim>1</dim>
					<dim>1</dim>
				</port>
			</input>
			<output>
				<port id="2" precision="FP16">
					<dim>1</dim>
					<dim>32</dim>
					<dim>22</dim>
					<dim>29</dim>
				</port>
			</output>
		</layer>
		<layer id="140" name="displacement_bwd_2/sink_port_0" type="Result" version="opset1">
			<input>
				<port id="0">
					<dim>1</dim>
					<dim>32</dim>
					<dim>22</dim>
					<dim>29</dim>
				</port>
			</input>
		</layer>
		<layer id="141" name="MobilenetV1/displacement_fwd_2/weights/read/Output_0/Data__const" type="Const" version="opset1">
			<data element_type="f16" offset="6457664" shape="32,1024,1,1" size="65536"/>
			<output>
				<port id="1" precision="FP16">
					<dim>32</dim>
					<dim>1024</dim>
					<dim>1</dim>
					<dim>1</dim>
				</port>
			</output>
		</layer>
		<layer id="142" name="Conv2D_2" type="Convolution" version="opset1">
			<data auto_pad="same_upper" dilations="1,1" output_padding="0,0" pads_begin="0,0" pads_end="0,0" strides="1,1"/>
			<input>
				<port id="0">
					<dim>1</dim>
					<dim>1024</dim>
					<dim>22</dim>
					<dim>29</dim>
				</port>
				<port id="1">
					<dim>32</dim>
					<dim>1024</dim>
					<dim>1</dim>
					<dim>1</dim>
				</port>
			</input>
			<output>
				<port id="2" precision="FP16">
					<dim>1</dim>
					<dim>32</dim>
					<dim>22</dim>
					<dim>29</dim>
				</port>
			</output>
		</layer>
		<layer id="143" name="MobilenetV1/displacement_fwd_2/biases/read/Output_0/Data_/copy_const" type="Const" version="opset1">
			<data element_type="f16" offset="6523200" shape="1,32,1,1" size="64"/>
			<output>
				<port id="1" precision="FP16">
					<dim>1</dim>
					<dim>32</dim>
					<dim>1</dim>
					<dim>1</dim>
				</port>
			</output>
		</layer>
		<layer id="144" name="displacement_fwd_2/Add" type="Add" version="opset1">
			<input>
				<port id="0">
					<dim>1</dim>
					<dim>32</dim>
					<dim>22</dim>
					<dim>29</dim>
				</port>
				<port id="1">
					<dim>1</dim>
					<dim>32</dim>
					<dim>1</dim>
					<dim>1</dim>
				</port>
			</input>
			<output>
				<port id="2" precision="FP16">
					<dim>1</dim>
					<dim>32</dim>
					<dim>22</dim>
					<dim>29</dim>
				</port>
			</output>
		</layer>
		<layer id="145" name="displacement_fwd_2/sink_port_0" type="Result" version="opset1">
			<input>
				<port id="0">
					<dim>1</dim>
					<dim>32</dim>
					<dim>22</dim>
					<dim>29</dim>
				</port>
			</input>
		</layer>
		<layer id="146" name="MobilenetV1/heatmap_2/weights/read/Output_0/Data__const" type="Const" version="opset1">
			<data element_type="f16" offset="6523264" shape="17,1024,1,1" size="34816"/>
			<output>
				<port id="1" precision="FP16">
					<dim>17</dim>
					<dim>1024</dim>
					<dim>1</dim>
					<dim>1</dim>
				</port>
			</output>
		</layer>
		<layer id="147" name="Conv2D" type="Convolution" version="opset1">
			<data auto_pad="same_upper" dilations="1,1" output_padding="0,0" pads_begin="0,0" pads_end="0,0" strides="1,1"/>
			<input>
				<port id="0">
					<dim>1</dim>
					<dim>1024</dim>
					<dim>22</dim>
					<dim>29</dim>
				</port>
				<port id="1">
					<dim>17</dim>
					<dim>1024</dim>
					<dim>1</dim>
					<dim>1</dim>
				</port>
			</input>
			<output>
				<port id="2" precision="FP16">
					<dim>1</dim>
					<dim>17</dim>
					<dim>22</dim>
					<dim>29</dim>
				</port>
			</output>
		</layer>
		<layer id="148" name="MobilenetV1/heatmap_2/biases/read/Output_0/Data_/copy_const" type="Const" version="opset1">
			<data element_type="f16" offset="6558080" shape="1,17,1,1" size="34"/>
			<output>
				<port id="1" precision="FP16">
					<dim>1</dim>
					<dim>17</dim>
					<dim>1</dim>
					<dim>1</dim>
				</port>
			</output>
		</layer>
		<layer id="149" name="heatmap_2/Add" type="Add" version="opset1">
			<input>
				<port id="0">
					<dim>1</dim>
					<dim>17</dim>
					<dim>22</dim>
					<dim>29</dim>
				</port>
				<port id="1">
					<dim>1</dim>
					<dim>17</dim>
					<dim>1</dim>
					<dim>1</dim>
				</port>
			</input>
			<output>
				<port id="2" precision="FP16">
					<dim>1</dim>
					<dim>17</dim>
					<dim>22</dim>
					<dim>29</dim>
				</port>
			</output>
		</layer>
		<layer id="150" name="heatmap" type="Sigmoid" version="opset1">
			<input>
				<port id="0">
					<dim>1</dim>
					<dim>17</dim>
					<dim>22</dim>
					<dim>29</dim>
				</port>
			</input>
			<output>
				<port id="1" precision="FP16">
					<dim>1</dim>
					<dim>17</dim>
					<dim>22</dim>
					<dim>29</dim>
				</port>
			</output>
		</layer>
		<layer id="151" name="heatmap/sink_port_0" type="Result" version="opset1">
			<input>
				<port id="0">
					<dim>1</dim>
					<dim>17</dim>
					<dim>22</dim>
					<dim>29</dim>
				</port>
			</input>
		</layer>
		<layer id="152" name="MobilenetV1/offset_2/weights/read/Output_0/Data__const" type="Const" version="opset1">
			<data element_type="f16" offset="6558114" shape="34,1024,1,1" size="69632"/>
			<output>
				<port id="1" precision="FP16">
					<dim>34</dim>
					<dim>1024</dim>
					<dim>1</dim>
					<dim>1</dim>
				</port>
			</output>
		</layer>
		<layer id="153" name="Conv2D_1" type="Convolution" version="opset1">
			<data auto_pad="same_upper" dilations="1,1" output_padding="0,0" pads_begin="0,0" pads_end="0,0" strides="1,1"/>
			<input>
				<port id="0">
					<dim>1</dim>
					<dim>1024</dim>
					<dim>22</dim>
					<dim>29</dim>
				</port>
				<port id="1">
					<dim>34</dim>
					<dim>1024</dim>
					<dim>1</dim>
					<dim>1</dim>
				</port>
			</input>
			<output>
				<port id="2" precision="FP16">
					<dim>1</dim>
					<dim>34</dim>
					<dim>22</dim>
					<dim>29</dim>
				</port>
			</output>
		</layer>
		<layer id="154" name="MobilenetV1/offset_2/biases/read/Output_0/Data_/copy_const" type="Const" version="opset1">
			<data element_type="f16" offset="6627746" shape="1,34,1,1" size="68"/>
			<output>
				<port id="1" precision="FP16">
					<dim>1</dim>
					<dim>34</dim>
					<dim>1</dim>
					<dim>1</dim>
				</port>
			</output>
		</layer>
		<layer id="155" name="offset_2/Add" type="Add" version="opset1">
			<input>
				<port id="0">
					<dim>1</dim>
					<dim>34</dim>
					<dim>22</dim>
					<dim>29</dim>
				</port>
				<port id="1">
					<dim>1</dim>
					<dim>34</dim>
					<dim>1</dim>
					<dim>1</dim>
				</port>
			</input>
			<output>
				<port id="2" precision="FP16">
					<dim>1</dim>
					<dim>34</dim>
					<dim>22</dim>
					<dim>29</dim>
				</port>
			</output>
		</layer>
		<layer id="156" name="offset_2/sink_port_0" type="Result" version="opset1">
			<input>
				<port id="0">
					<dim>1</dim>
					<dim>34</dim>
					<dim>22</dim>
					<dim>29</dim>
				</port>
			</input>
		</layer>
	</layers>
	<edges>
		<edge from-layer="0" from-port="0" to-layer="2" to-port="0"/>
		<edge from-layer="1" from-port="1" to-layer="2" to-port="1"/>
		<edge from-layer="2" from-port="2" to-layer="4" to-port="0"/>
		<edge from-layer="3" from-port="1" to-layer="4" to-port="1"/>
		<edge from-layer="4" from-port="2" to-layer="5" to-port="0"/>
		<edge from-layer="5" from-port="1" to-layer="7" to-port="0"/>
		<edge from-layer="6" from-port="1" to-layer="7" to-port="1"/>
		<edge from-layer="7" from-port="2" to-layer="9" to-port="0"/>
		<edge from-layer="8" from-port="1" to-layer="9" to-port="1"/>
		<edge from-layer="9" from-port="2" to-layer="10" to-port="0"/>
		<edge from-layer="10" from-port="1" to-layer="12" to-port="0"/>
		<edge from-layer="11" from-port="1" to-layer="12" to-port="1"/>
		<edge from-layer="12" from-port="2" to-layer="14" to-port="0"/>
		<edge from-layer="13" from-port="1" to-layer="14" to-port="1"/>
		<edge from-layer="14" from-port="2" to-layer="15" to-port="0"/>
		<edge from-layer="15" from-port="1" to-layer="17" to-port="0"/>
		<edge from-layer="16" from-port="1" to-layer="17" to-port="1"/>
		<edge from-layer="17" from-port="2" to-layer="19" to-port="0"/>
		<edge from-layer="18" from-port="1" to-layer="19" to-port="1"/>
		<edge from-layer="19" from-port="2" to-layer="20" to-port="0"/>
		<edge from-layer="20" from-port="1" to-layer="22" to-port="0"/>
		<edge from-layer="21" from-port="1" to-layer="22" to-port="1"/>
		<edge from-layer="22" from-port="2" to-layer="24" to-port="0"/>
		<edge from-layer="23" from-port="1" to-layer="24" to-port="1"/>
		<edge from-layer="24" from-port="2" to-layer="25" to-port="0"/>
		<edge from-layer="25" from-port="1" to-layer="27" to-port="0"/>
		<edge from-layer="26" from-port="1" to-layer="27" to-port="1"/>
		<edge from-layer="27" from-port="2" to-layer="29" to-port="0"/>
		<edge from-layer="28" from-port="1" to-layer="29" to-port="1"/>
		<edge from-layer="29" from-port="2" to-layer="30" to-port="0"/>
		<edge from-layer="30" from-port="1" to-layer="32" to-port="0"/>
		<edge from-layer="31" from-port="1" to-layer="32" to-port="1"/>
		<edge from-layer="32" from-port="2" to-layer="34" to-port="0"/>
		<edge from-layer="33" from-port="1" to-layer="34" to-port="1"/>
		<edge from-layer="34" from-port="2" to-layer="35" to-port="0"/>
		<edge from-layer="35" from-port="1" to-layer="37" to-port="0"/>
		<edge from-layer="36" from-port="1" to-layer="37" to-port="1"/>
		<edge from-layer="37" from-port="2" to-layer="39" to-port="0"/>
		<edge from-layer="38" from-port="1" to-layer="39" to-port="1"/>
		<edge from-layer="39" from-port="2" to-layer="40" to-port="0"/>
		<edge from-layer="40" from-port="1" to-layer="42" to-port="0"/>
		<edge from-layer="41" from-port="1" to-layer="42" to-port="1"/>
		<edge from-layer="42" from-port="2" to-layer="44" to-port="0"/>
		<edge from-layer="43" from-port="1" to-layer="44" to-port="1"/>
		<edge from-layer="44" from-port="2" to-layer="45" to-port="0"/>
		<edge from-layer="45" from-port="1" to-layer="47" to-port="0"/>
		<edge from-layer="46" from-port="1" to-layer="47" to-port="1"/>
		<edge from-layer="47" from-port="2" to-layer="49" to-port="0"/>
		<edge from-layer="48" from-port="1" to-layer="49" to-port="1"/>
		<edge from-layer="49" from-port="2" to-layer="50" to-port="0"/>
		<edge from-layer="50" from-port="1" to-layer="52" to-port="0"/>
		<edge from-layer="51" from-port="1" to-layer="52" to-port="1"/>
		<edge from-layer="52" from-port="2" to-layer="54" to-port="0"/>
		<edge from-layer="53" from-port="1" to-layer="54" to-port="1"/>
		<edge from-layer="54" from-port="2" to-layer="55" to-port="0"/>
		<edge from-layer="55" from-port="1" to-layer="57" to-port="0"/>
		<edge from-layer="56" from-port="1" to-layer="57" to-port="1"/>
		<edge from-layer="57" from-port="2" to-layer="59" to-port="0"/>
		<edge from-layer="58" from-port="1" to-layer="59" to-port="1"/>
		<edge from-layer="59" from-port="2" to-layer="60" to-port="0"/>
		<edge from-layer="60" from-port="1" to-layer="62" to-port="0"/>
		<edge from-layer="61" from-port="1" to-layer="62" to-port="1"/>
		<edge from-layer="62" from-port="2" to-layer="64" to-port="0"/>
		<edge from-layer="63" from-port="1" to-layer="64" to-port="1"/>
		<edge from-layer="64" from-port="2" to-layer="65" to-port="0"/>
		<edge from-layer="65" from-port="1" to-layer="67" to-port="0"/>
		<edge from-layer="66" from-port="1" to-layer="67" to-port="1"/>
		<edge from-layer="67" from-port="2" to-layer="69" to-port="0"/>
		<edge from-layer="68" from-port="1" to-layer="69" to-port="1"/>
		<edge from-layer="69" from-port="2" to-layer="70" to-port="0"/>
		<edge from-layer="70" from-port="1" to-layer="72" to-port="0"/>
		<edge from-layer="71" from-port="1" to-layer="72" to-port="1"/>
		<edge from-layer="72" from-port="2" to-layer="74" to-port="0"/>
		<edge from-layer="73" from-port="1" to-layer="74" to-port="1"/>
		<edge from-layer="74" from-port="2" to-layer="75" to-port="0"/>
		<edge from-layer="75" from-port="1" to-layer="77" to-port="0"/>
		<edge from-layer="76" from-port="1" to-layer="77" to-port="1"/>
		<edge from-layer="77" from-port="2" to-layer="79" to-port="0"/>
		<edge from-layer="78" from-port="1" to-layer="79" to-port="1"/>
		<edge from-layer="79" from-port="2" to-layer="80" to-port="0"/>
		<edge from-layer="80" from-port="1" to-layer="82" to-port="0"/>
		<edge from-layer="81" from-port="1" to-layer="82" to-port="1"/>
		<edge from-layer="82" from-port="2" to-layer="84" to-port="0"/>
		<edge from-layer="83" from-port="1" to-layer="84" to-port="1"/>
		<edge from-layer="84" from-port="2" to-layer="85" to-port="0"/>
		<edge from-layer="85" from-port="1" to-layer="87" to-port="0"/>
		<edge from-layer="86" from-port="1" to-layer="87" to-port="1"/>
		<edge from-layer="87" from-port="2" to-layer="89" to-port="0"/>
		<edge from-layer="88" from-port="1" to-layer="89" to-port="1"/>
		<edge from-layer="89" from-port="2" to-layer="90" to-port="0"/>
		<edge from-layer="90" from-port="1" to-layer="92" to-port="0"/>
		<edge from-layer="91" from-port="1" to-layer="92" to-port="1"/>
		<edge from-layer="92" from-port="2" to-layer="94" to-port="0"/>
		<edge from-layer="93" from-port="1" to-layer="94" to-port="1"/>
		<edge from-layer="94" from-port="2" to-layer="95" to-port="0"/>
		<edge from-layer="95" from-port="1" to-layer="97" to-port="0"/>
		<edge from-layer="96" from-port="1" to-layer="97" to-port="1"/>
		<edge from-layer="97" from-port="2" to-layer="99" to-port="0"/>
		<edge from-layer="98" from-port="1" to-layer="99" to-port="1"/>
		<edge from-layer="99" from-port="2" to-layer="100" to-port="0"/>
		<edge from-layer="100" from-port="1" to-layer="102" to-port="0"/>
		<edge from-layer="101" from-port="1" to-layer="102" to-port="1"/>
		<edge from-layer="102" from-port="2" to-layer="104" to-port="0"/>
		<edge from-layer="103" from-port="1" to-layer="104" to-port="1"/>
		<edge from-layer="104" from-port="2" to-layer="105" to-port="0"/>
		<edge from-layer="105" from-port="1" to-layer="107" to-port="0"/>
		<edge from-layer="106" from-port="1" to-layer="107" to-port="1"/>
		<edge from-layer="107" from-port="2" to-layer="109" to-port="0"/>
		<edge from-layer="108" from-port="1" to-layer="109" to-port="1"/>
		<edge from-layer="109" from-port="2" to-layer="110" to-port="0"/>
		<edge from-layer="110" from-port="1" to-layer="112" to-port="0"/>
		<edge from-layer="111" from-port="1" to-layer="112" to-port="1"/>
		<edge from-layer="112" from-port="2" to-layer="114" to-port="0"/>
		<edge from-layer="113" from-port="1" to-layer="114" to-port="1"/>
		<edge from-layer="114" from-port="2" to-layer="115" to-port="0"/>
		<edge from-layer="115" from-port="1" to-layer="117" to-port="0"/>
		<edge from-layer="116" from-port="1" to-layer="117" to-port="1"/>
		<edge from-layer="117" from-port="2" to-layer="119" to-port="0"/>
		<edge from-layer="118" from-port="1" to-layer="119" to-port="1"/>
		<edge from-layer="119" from-port="2" to-layer="120" to-port="0"/>
		<edge from-layer="120" from-port="1" to-layer="122" to-port="0"/>
		<edge from-layer="121" from-port="1" to-layer="122" to-port="1"/>
		<edge from-layer="122" from-port="2" to-layer="124" to-port="0"/>
		<edge from-layer="123" from-port="1" to-layer="124" to-port="1"/>
		<edge from-layer="124" from-port="2" to-layer="125" to-port="0"/>
		<edge from-layer="125" from-port="1" to-layer="127" to-port="0"/>
		<edge from-layer="126" from-port="1" to-layer="127" to-port="1"/>
		<edge from-layer="127" from-port="2" to-layer="129" to-port="0"/>
		<edge from-layer="128" from-port="1" to-layer="129" to-port="1"/>
		<edge from-layer="129" from-port="2" to-layer="130" to-port="0"/>
		<edge from-layer="130" from-port="1" to-layer="132" to-port="0"/>
		<edge from-layer="131" from-port="1" to-layer="132" to-port="1"/>
		<edge from-layer="132" from-port="2" to-layer="134" to-port="0"/>
		<edge from-layer="133" from-port="1" to-layer="134" to-port="1"/>
		<edge from-layer="134" from-port="2" to-layer="135" to-port="0"/>
		<edge from-layer="135" from-port="1" to-layer="137" to-port="0"/>
		<edge from-layer="136" from-port="1" to-layer="137" to-port="1"/>
		<edge from-layer="137" from-port="2" to-layer="139" to-port="0"/>
		<edge from-layer="138" from-port="1" to-layer="139" to-port="1"/>
		<edge from-layer="139" from-port="2" to-layer="140" to-port="0"/>
		<edge from-layer="135" from-port="1" to-layer="142" to-port="0"/>
		<edge from-layer="141" from-port="1" to-layer="142" to-port="1"/>
		<edge from-layer="142" from-port="2" to-layer="144" to-port="0"/>
		<edge from-layer="143" from-port="1" to-layer="144" to-port="1"/>
		<edge from-layer="144" from-port="2" to-layer="145" to-port="0"/>
		<edge from-layer="135" from-port="1" to-layer="147" to-port="0"/>
		<edge from-layer="146" from-port="1" to-layer="147" to-port="1"/>
		<edge from-layer="147" from-port="2" to-layer="149" to-port="0"/>
		<edge from-layer="148" from-port="1" to-layer="149" to-port="1"/>
		<edge from-layer="149" from-port="2" to-layer="150" to-port="0"/>
		<edge from-layer="150" from-port="1" to-layer="151" to-port="0"/>
		<edge from-layer="135" from-port="1" to-layer="153" to-port="0"/>
		<edge from-layer="152" from-port="1" to-layer="153" to-port="1"/>
		<edge from-layer="153" from-port="2" to-layer="155" to-port="0"/>
		<edge from-layer="154" from-port="1" to-layer="155" to-port="1"/>
		<edge from-layer="155" from-port="2" to-layer="156" to-port="0"/>
	</edges>
	<meta_data>
		<MO_version value="2021.1.0-1237-bece22ac675-releases/2021/1"/>
		<cli_parameters>
			<caffe_parser_path value="DIR"/>
			<data_type value="FP16"/>
			<disable_nhwc_to_nchw value="False"/>
			<disable_omitting_optional value="False"/>
			<disable_resnet_optimization value="False"/>
			<disable_weights_compression value="False"/>
			<enable_concat_optimization value="False"/>
			<enable_flattening_nested_params value="False"/>
			<enable_ssd_gluoncv value="False"/>
			<extensions value="DIR"/>
			<framework value="tf"/>
			<freeze_placeholder_with_value value="{}"/>
			<generate_deprecated_IR_V7 value="False"/>
			<input value="image"/>
			<input_model value="DIR\model-mobilenet_v1_101.pb"/>
			<input_model_is_text value="False"/>
			<input_shape value="[1,337,449,3]"/>
			<k value="DIR\CustomLayersMapping.xml"/>
			<keep_shape_ops value="True"/>
			<legacy_mxnet_model value="False"/>
			<log_level value="ERROR"/>
			<mean_scale_values value="{}"/>
			<mean_values value="()"/>
			<model_name value="model-mobilenet_v1_101"/>
			<output value="['offset_2', 'displacement_fwd_2', 'displacement_bwd_2', 'heatmap']"/>
			<output_dir value="DIR"/>
			<placeholder_data_types value="{}"/>
			<placeholder_shapes value="{'image': array([  1, 337, 449,   3], dtype=int64)}"/>
			<progress value="False"/>
			<remove_memory value="False"/>
			<remove_output_softmax value="False"/>
			<reverse_input_channels value="False"/>
			<save_params_from_nd value="False"/>
			<scale_values value="()"/>
			<silent value="False"/>
			<static_shape value="False"/>
			<stream_output value="False"/>
			<unset unset_cli_parameters="batch, counts, disable_fusing, disable_gfusing, finegrain_fusing, input_checkpoint, input_meta_graph, input_proto, input_symbol, mean_file, mean_file_offsets, move_to_preprocess, nd_prefix_name, pretrained_model_name, saved_model_dir, saved_model_tags, scale, tensorboard_logdir, tensorflow_custom_layer_libraries, tensorflow_custom_operations_config_update, tensorflow_object_detection_api_pipeline_config, tensorflow_use_custom_operations_config, transformations_config"/>
		</cli_parameters>
	</meta_data>
</net>
